…
name: giraffe_wsupervised
ndf: 64
ngf: 64
niter: 6
niter_decay: 4
no_html: False
norm: batch
num_D: 1
pool_size: 20
print_freq: 100
rotation: True
save_epoch_freq: 1
save_latest_freq: 5000
scale_rate: 0
separate: False
shuffle: True
task_epoch: 0
task_layers: 4
task_model_type: UNet
trans_model_type: ResNet
transform_epoch: 0
transform_layers: 9
which_epoch: latest
----------------End----------------
pathfiles: ./dataset/DoodleEnhance/trainSYN.txt
pathfiles: ./dataset/DoodleEnhance/train.txt
training images = 18
wsupervised
_ResGenerator(
  (encoder): Sequential(
    (0): ReflectionPad2d((3, 3, 3, 3))
    (1): Conv2d(3, 64, kernel_size=(7, 7), stride=(1, 1), bias=False)
    (2): BatchNorm2d(64, eps=1e-05, momentum=0.1, affine=True, track_running_stats=True)
    (3): PReLU(num_parameters=1)
    (4): _EncoderBlock(
      (model): Sequential(
        (0): Conv2d(64, 128, kernel_size=(3, 3), stride=(1, 1), padding=(1, 1), bias=False)
        (1): BatchNorm2d(128, eps=1e-05, momentum=0.1, affine=True, track_running_stats=True)
        (2): PReLU(num_parameters=1)
        (3): Conv2d(128, 128, kernel_size=(3, 3), stride=(1, 1), padding=(1, 1), bias=False)
        (4): BatchNorm2d(128, eps=1e-05, momentum=0.1, affine=True, track_running_stats=True)
        (5): PReLU(num_parameters=1)
      )
    )
    (5): AvgPool2d(kernel_size=2, stride=2, padding=0)
    (6): _EncoderBlock(
      (model): Sequential(
        (0): Conv2d(128, 128, kernel_size=(3, 3), stride=(1, 1), padding=(1, 1), bias=False)
        (1): BatchNorm2d(128, eps=1e-05, momentum=0.1, affine=True, track_running_stats=True)
        (2): PReLU(num_parameters=1)
        (3): Conv2d(128, 128, kernel_size=(3, 3), stride=(1, 1), padding=(1, 1), bias=False)
        (4): BatchNorm2d(128, eps=1e-05, momentum=0.1, affine=True, track_running_stats=True)
        (5): PReLU(num_parameters=1)
      )
    )
    (7): AvgPool2d(kernel_size=2, stride=2, padding=0)
    (8): _InceptionBlock(
      (layer0): Sequential(
        (0): ReflectionPad2d((1, 1, 1, 1))
        (1): Conv2d(128, 128, kernel_size=(3, 3), stride=(1, 1), bias=False)
      )
      (norm1): BatchNorm2d(128, eps=1e-05, momentum=0.1, affine=True, track_running_stats=True)
      (norm2): BatchNorm2d(128, eps=1e-05, momentum=0.1, affine=True, track_running_stats=True)
      (nonlinearity): PReLU(num_parameters=1)
      (branch1x1): Sequential(
        (0): ReflectionPad2d((1, 1, 1, 1))
        (1): Conv2d(128, 128, kernel_size=(3, 3), stride=(1, 1), bias=False)
      )
    )
    (9): _InceptionBlock(
      (layer0): Sequential(
        (0): ReflectionPad2d((1, 1, 1, 1))
        (1): Conv2d(128, 128, kernel_size=(3, 3), stride=(1, 1), bias=False)
      )
      (norm1): BatchNorm2d(128, eps=1e-05, momentum=0.1, affine=True, track_running_stats=True)
      (norm2): BatchNorm2d(128, eps=1e-05, momentum=0.1, affine=True, track_running_stats=True)
      (nonlinearity): PReLU(num_parameters=1)
      (branch1x1): Sequential(
        (0): ReflectionPad2d((1, 1, 1, 1))
        (1): Conv2d(128, 128, kernel_size=(3, 3), stride=(1, 1), bias=False)
      )
    )
    (10): _InceptionBlock(
      (layer0): Sequential(
        (0): ReflectionPad2d((1, 1, 1, 1))
        (1): Conv2d(128, 128, kernel_size=(3, 3), stride=(1, 1), bias=False)
      )
      (norm1): BatchNorm2d(128, eps=1e-05, momentum=0.1, affine=True, track_running_stats=True)
      (norm2): BatchNorm2d(128, eps=1e-05, momentum=0.1, affine=True, track_running_stats=True)
      (nonlinearity): PReLU(num_parameters=1)
      (branch1x1): Sequential(
        (0): ReflectionPad2d((1, 1, 1, 1))
        (1): Conv2d(128, 128, kernel_size=(3, 3), stride=(1, 1), bias=False)
      )
    )
    (11): _InceptionBlock(
      (layer0): Sequential(
        (0): ReflectionPad2d((1, 1, 1, 1))
        (1): Conv2d(128, 128, kernel_size=(3, 3), stride=(1, 1), bias=False)
      )
      (norm1): BatchNorm2d(128, eps=1e-05, momentum=0.1, affine=True, track_running_stats=True)
      (norm2): BatchNorm2d(128, eps=1e-05, momentum=0.1, affine=True, track_running_stats=True)
      (nonlinearity): PReLU(num_parameters=1)
      (branch1x1): Sequential(
        (0): ReflectionPad2d((1, 1, 1, 1))
        (1): Conv2d(128, 128, kernel_size=(3, 3), stride=(1, 1), bias=False)
      )
    )
    (12): _InceptionBlock(
      (layer0): Sequential(
        (0): ReflectionPad2d((1, 1, 1, 1))
        (1): Conv2d(128, 128, kernel_size=(3, 3), stride=(1, 1), bias=False)
      )
      (norm1): BatchNorm2d(128, eps=1e-05, momentum=0.1, affine=True, track_running_stats=True)
      (norm2): BatchNorm2d(128, eps=1e-05, momentum=0.1, affine=True, track_running_stats=True)
      (nonlinearity): PReLU(num_parameters=1)
      (branch1x1): Sequential(
        (0): ReflectionPad2d((1, 1, 1, 1))
        (1): Conv2d(128, 128, kernel_size=(3, 3), stride=(1, 1), bias=False)
      )
    )
    (13): _InceptionBlock(
      (layer0): Sequential(
        (0): ReflectionPad2d((1, 1, 1, 1))
        (1): Conv2d(128, 128, kernel_size=(3, 3), stride=(1, 1), bias=False)
      )
      (norm1): BatchNorm2d(128, eps=1e-05, momentum=0.1, affine=True, track_running_stats=True)
      (norm2): BatchNorm2d(128, eps=1e-05, momentum=0.1, affine=True, track_running_stats=True)
      (nonlinearity): PReLU(num_parameters=1)
      (branch1x1): Sequential(
        (0): ReflectionPad2d((1, 1, 1, 1))
        (1): Conv2d(128, 128, kernel_size=(3, 3), stride=(1, 1), bias=False)
      )
    )
    (14): _InceptionBlock(
      (layer0): Sequential(
        (0): ReflectionPad2d((1, 1, 1, 1))
        (1): Conv2d(128, 128, kernel_size=(3, 3), stride=(1, 1), bias=False)
      )
      (norm1): BatchNorm2d(128, eps=1e-05, momentum=0.1, affine=True, track_running_stats=True)
      (norm2): BatchNorm2d(128, eps=1e-05, momentum=0.1, affine=True, track_running_stats=True)
      (nonlinearity): PReLU(num_parameters=1)
      (branch1x1): Sequential(
        (0): ReflectionPad2d((1, 1, 1, 1))
        (1): Conv2d(128, 128, kernel_size=(3, 3), stride=(1, 1), bias=False)
      )
    )
  )
  (decoder): Sequential(
    (0): _DecoderUpBlock(
      (model): Sequential(
        (0): ReflectionPad2d((1, 1, 1, 1))
        (1): Conv2d(128, 128, kernel_size=(3, 3), stride=(1, 1), bias=False)
        (2): BatchNorm2d(128, eps=1e-05, momentum=0.1, affine=True, track_running_stats=True)
        (3): PReLU(num_parameters=1)
        (4): ConvTranspose2d(128, 128, kernel_size=(3, 3), stride=(2, 2), padding=(1, 1), output_padding=(1, 1))
        (5): BatchNorm2d(128, eps=1e-05, momentum=0.1, affine=True, track_running_stats=True)
        (6): PReLU(num_parameters=1)
      )
    )
    (1): _DecoderUpBlock(
      (model): Sequential(
        (0): ReflectionPad2d((1, 1, 1, 1))
        (1): Conv2d(128, 128, kernel_size=(3, 3), stride=(1, 1), bias=False)
        (2): BatchNorm2d(128, eps=1e-05, momentum=0.1, affine=True, track_running_stats=True)
        (3): PReLU(num_parameters=1)
        (4): ConvTranspose2d(128, 64, kernel_size=(3, 3), stride=(2, 2), padding=(1, 1), output_padding=(1, 1))
        (5): BatchNorm2d(64, eps=1e-05, momentum=0.1, affine=True, track_running_stats=True)
        (6): PReLU(num_parameters=1)
      )
    )
    (2): ReflectionPad2d((3, 3, 3, 3))
    (3): Conv2d(64, 3, kernel_size=(7, 7), stride=(1, 1))
    (4): Tanh()
  )
)
total number of parameters: 3.121 M
initialize network with kaiming
_MultiscaleDiscriminator(
  (scale0): _Discriminator(
    (model): Sequential(
      (0): Conv2d(3, 64, kernel_size=(4, 4), stride=(2, 2), padding=(1, 1), bias=False)
      (1): PReLU(num_parameters=1)
      (2): Conv2d(64, 128, kernel_size=(4, 4), stride=(2, 2), padding=(1, 1), bias=False)
      (3): BatchNorm2d(128, eps=1e-05, momentum=0.1, affine=True, track_running_stats=True)
      (4): PReLU(num_parameters=1)
      (5): Conv2d(128, 256, kernel_size=(4, 4), stride=(2, 2), padding=(1, 1), bias=False)
      (6): BatchNorm2d(256, eps=1e-05, momentum=0.1, affine=True, track_running_stats=True)
      (7): PReLU(num_parameters=1)
      (8): Conv2d(256, 512, kernel_size=(4, 4), stride=(1, 1), padding=(1, 1), bias=False)
      (9): BatchNorm2d(512, eps=1e-05, momentum=0.1, affine=True, track_running_stats=True)
      (10): PReLU(num_parameters=1)
      (11): Conv2d(512, 1, kernel_size=(4, 4), stride=(1, 1), padding=(1, 1))
    )
  )
  (downsample): AvgPool2d(kernel_size=3, stride=2, padding=[1, 1])
)
total number of parameters: 2.766 M
initialize network with kaiming
model [T2Net model] was created.
Exception in user code:
------------------------------------------------------------
create web directory ./checkpoints/giraffe_wsupervised/web...
training img s2t:  [tensor([[[[-9.8633e-01, -9.7173e-02, -9.6185e-01,  ...,  1.9540e-01,
…
